…
y_train:  (272000,)
x_val:  (800, 1, 64, 8, 16)
y_val:  (800,)
x_test:  (15200, 1, 64, 8, 16)
y_test:  (15200,)
Constructing output dictionary ...
Size of output dictionary in bytes:  9438404197
Done.

Extracting downsampled input and output data from the datacell ...
x_train shape:  (27200, 1, 64, 8, 16)
x_val shape:  (80, 1, 64, 8, 16)
x_test shape:  (1520, 1, 64, 8, 16)
y_train shape:  (27200,)
y_val shape:  (80,)
y_test shape:  (1520,)
Generating the TensorDataset objects ...
Constructing the model ...
Model input shape:  [1, 64, 8, 16]
Model output shape:  [8]
EMGNet(
  (prep_block): Sequential(
    (0): BatchNorm3d(1, eps=1e-05, momentum=0.1, affine=True, track_running_stats=True)
    (1): ReLU()
  )
  (main_block): Conv_Network(
    (net): Sequential(
      (0): Conv_Block(
        (net): Sequential(
          (0): Conv3d(1, 16, kernel_size=(3, 3, 3), stride=(1, 1, 1), padding=same)
          (1): BatchNorm3d(16, eps=1e-05, momentum=0.1, affine=True, track_running_stats=True)
          (2): ReLU()
        )
      )
      (1): Conv_Block(
        (net): Sequential(
          (0): Conv3d(16, 32, kernel_size=(3, 3, 3), stride=(1, 1, 1), padding=same)
          (1): BatchNorm3d(32, eps=1e-05, momentum=0.1, affine=True, track_running_stats=True)
          (2): ReLU()
        )
      )
      (2): Conv_Block(
        (net): Sequential(
          (0): Conv3d(32, 32, kernel_size=(3, 3, 3), stride=(1, 1, 1), padding=same)
          (1): BatchNorm3d(32, eps=1e-05, momentum=0.1, affine=True, track_running_stats=True)
          (2): ReLU()
        )
      )
      (3): Conv_Block(
        (net): Sequential(
          (0): Conv3d(32, 64, kernel_size=(3, 3, 3), stride=(1, 1, 1), padding=same)
          (1): BatchNorm3d(64, eps=1e-05, momentum=0.1, affine=True, track_running_stats=True)
          (2): ReLU()
          (3): AdaptiveAvgPool3d(output_size=[1, 1, 1])
        )
      )
      (4): Flatten(start_dim=1, end_dim=-1)
      (5): Linear(in_features=64, out_features=8, bias=True)
    )
  )
)
Training the model ...
Total number of data points:      27280
Number of training data points:   27200
Number of validation data points: 80
Number of training batches:    54
Number of validation batches:  1
Batch size:                    512
Shape of training input from the dataloader:   torch.Size([512, 1, 64, 8, 16])
Shape of training output from the dataloader:  torch.Size([512])
…
